Titanic ML/model.pth (torch_old, 1592 bytes, 5 tensors)

fc1.weight f4 [8, 7]
00000000: ba0f 253e abc7 19be 1c29 c13d e0b3 54bd
00000010: 80c7 49bd 00de caba bf71 bc3e 835b a53e
00000020: cc33 93be 0dc0 3cbe 2627 5e3e a188 9a3e
00000030: b205 223e 2587 883e b94c bd3e 8072 343d
00000040: 753a 943e 7235 0d3e 64bc 42be 335c 843e
00000050: 8f5d 8a3e 448c b93d b0f6 d3bd a83a 1f3d
00000060: 3441 9abd b882 57bd c3f6 4cbe a9a0 a03e
00000070: 604a ddbc 9290 213e b5f2 9a3e 5603 80be
00000080: 7458 f5bd 5e6e 4a3e 2881 dbbd 8a31 79be
00000090: f574 983e 30ac 903d 791a 893e d85b b5be
000000a0: 3e9e 003e 0292 92be 53a0 8c3e faaa 143e
000000b0: 4daf 83be 3c78 b2be 5339 9cbe d013 dbbd
000000c0: 120f 1a3e 3cfb aabe 3470 debd c7f6 7dbe
000000d0: 08b3 76bd 846a 34be 1108 923e 845f f23d
0.1611928 -0.15017574 0.09431669 -0.051929355 -0.049262524 -0.0015477538 0.3680553 0.3229638
-0.28750455 -0.18432637 0.21694621 0.30182365 0.15822485 0.26665607 0.36972597 0.04405451
0.2895085 0.13789919 -0.19017178 0.25851592 0.27024505 0.09059957 -0.10349786 0.0388743
-0.07531968 -0.052614897 -0.20016007 0.31372574 -0.027013004 0.15777805 0.30263296 -0.25002545
-0.11979762 0.19768664 -0.10717994 -0.24335304 0.2977673 0.07064092 0.2677801 -0.35421634
0.12560365 -0.2862702 0.27466068 0.14518347 -0.2571968 -0.34857357 -0.30512485 -0.10697138
0.15044811 -0.33394802 -0.10861245 -0.2480117 -0.06022933 -0.17618757 0.2852178 0.118346244

fc1.bias f4 [8]
00000000: a0e7 84be 6051 c1bc 0e1d 2c3e 60eb 243d
00000010: 5e0c 3dbe 9852 80be 25d6 9f3e b0bc 943d
-0.25957966 -0.023598373 0.16807958 0.040263534 -0.18461749 -0.25063014 0.31218067 0.07262552

fc2.weight f4 [8, 8]
00000000: febd 573e 8ef5 04be 74bf afbe 1a72 dcbd
00000010: 2d05 aa3e 9407 37be 683f 4a3d ed49 843e
00000020: d09c 35bd 230a 34be 480d a83d f876 bd3d
00000030: 3ed9 203e 325b 35be 51da 9cbe 6686 9cbe
00000040: 3004 da3c 12d2 a4be 0ebc 51be 247b a1be
00000050: 7cdb e83d af94 9e3e 488d 47bd d192 a53e
00000060: c0c1 b5bd 2659 533e 1195 823e 47ea 8e3e
00000070: 11be 963e 8b25 823e 0408 993d 62c5 1c3e
00000080: 4d00 8e3e bbcf 9b3e 9061 5c3d d0c1 6cbe
00000090: 28d8 713d c0c7 103d 808e 5d3d 00ed 733d
000000a0: 1448 5dbe c7bb 943e 6631 113e a1a3 b33e
000000b0: 8015 9ebb 959b 8c3e 6908 98be 1850 60bd
000000c0: dbfe 2fbe f4db 35be 30ad 5b3d 3437 adbd
000000d0: bc04 e33d e017 f53d d09f d93c 66f9 7c3e
000000e0: 002c c5ba 2a6f 73be 8004 abbe e082 163d
000000f0: 7021 7dbd 75a5 933e 80ab dfbc eecf 523e
0.2106857 -0.12984297 -0.34325755 -0.10763951 0.33207074 -0.17873985 0.049376875 0.2583765
-0.044339 -0.17581992 0.08205658 0.09251207 0.15707871 -0.1771057 -0.30635312 -0.30571288
0.026613325 -0.3219152 -0.20481893 -0.3153926 0.11369988 0.30972812 -0.04871872 0.32338575
-0.088748455 0.20639476 0.25504354 0.27913114 0.29441884 0.25419268 0.07472232 0.1530967
0.27734604 0.30431923 0.05380398 -0.23120809 0.059044033 0.035346746 0.054090977 0.059552193
-0.21609527 0.29049513 0.14179 0.35085776 -0.0048243403 0.2746245 -0.29693916 -0.054763883
-0.17187063 -0.17759687 0.05363196 -0.08457795 0.110848874 0.119674444 0.026565462 0.24704513
-0.001504302 -0.23772874 -0.3340187 0.036745906 -0.061799467 0.2883717 -0.027303457 0.20587131

fc2.bias f4 [8]
00000000: e084 80be 2a8f 99be 50f1 7abe 8d2e a63e
00000010: 20d7 00bd da4e 57be 62bf 643e fabc 65be
-0.25101376 -0.29992038 -0.24506116 0.3245739 -0.03145516 -0.21026173 0.22338632 -0.2243537

fc3.weight f4 [1, 8]
00000000: f8a2 cebd b234 5f3e 41d1 853e 384c 20bd
00000010: 2569 af3e dcc2 d83d ed63 a23e 0cb6 f63d
-0.100896776 0.21797445 0.2613621 -0.039135188 0.34259906 0.105840415 0.31716862 0.120464414
